output/test_run/checkpoints/model_checkpoint_InteractionNetwork_6448_77ce67e079_atkinsn2.best.pth.tar (torch, 31215 bytes, 17 tensors)

R1.layers.0.weight f4 [40, 10]
0	0x3e50fa20	0.20407915
1	0xbc3df46f	-0.011593922
2	0x3d262030	0.04055804
3	0xbe76bc43	-0.24095254
4	0x3c25c7f4	0.010118473
5	0xbd06d991	-0.03292233
6	0xbd0f46eb	-0.034979742
7	0xbdaed276	-0.08536236
8	0x3cf980ea	0.030456979
9	0xbb329e83	-0.0027255125
10	0x3c90fa14	0.017697372
11	0x3c33cce2	0.010974141
12	0x3b05d984	0.002042384
13	0x3d0c0a7d	0.03418969
14	0xbc4937e9	-0.012281396
15	0xbb083575	-0.0020783816
16	0xbd994988	-0.07484728
17	0x3d9d9e74	0.07696238
18	0x3d5939ac	0.053033516
19	0x3ba8ca9d	0.0051511065
20	0x3dd2a7d8	0.1028592
21	0xbcd517c0	-0.026012301
22	0xbd0e8d22	-0.034802563
23	0xbd1a51c3	-0.03767563
24	0x3cbc3889	0.022976177
25	0x3c9af223	0.018914288
26	0x3ee8cb19	0.4546745
27	0xbe315b8e	-0.17320082
28	0xbe9ced19	-0.3064964
29	0xbc49be3b	-0.012313421
30	0xbe2e1033	-0.16998367
31	0xbbc506a0	-0.0060127527
32	0x3c1882f6	0.009308567
33	0x3e3db599	0.18526305
34	0x3ba0fa8d	0.0049126805
35	0xbc15aea3	-0.009135875
36	0xbdae37ae	-0.08506714
37	0xbd883e9d	-0.066525675
38	0xbe52b011	-0.20574977
39	0xbb6ae9c0	-0.0035844892
40	0xbd658828	-0.05603805
41	0xbc0cd48e	-0.008595599
42	0x3cda55f7	0.02665232
43	0x3c796666	0.015222168
44	0x3c062d93	0.008189577
45	0xbd0e8ad7	-0.034800377
46	0xbf50f338	-0.8162112
47	0xbd9d9a4f	-0.07695448
48	0x3dea1e5c	0.11431572
49	0x3b8447fa	0.0040369006
50	0xbdf499de	-0.1194341
51	0xbd1490d8	-0.036270946
52	0xbc5ab8c6	-0.0133497175
53	0x3dc943a3	0.09827354
54	0x3d2d84b6	0.04236289
55	0x3c9722b8	0.018449172
56	0xbd88a6ce	-0.066724405
57	0xb9b28e88	-0.00034057
58	0xbd647cbe	-0.055783026
59	0xbc66f169	-0.014095643
60	0xbe80f234	-0.25184786
61	0x3c3675b8	0.011136465
62	0xbd8c2830	-0.06843603
63	0xbc1bd342	-0.009510817
64	0xbbede14b	-0.007259523
65	0x3dd11e23	0.10210826
66	0xbf024383	-0.50884265
67	0xbd3dd91e	-0.046349637
68	0x3e2843ae	0.16432068
69	0x3d51fe04	0.05126764
70	0x3d16c3c8	0.036807805
71	0x3cf9ec44	0.030508168
72	0xbcc94631	-0.024569603
73	0x3d16a3ca	0.036777295
74	0xbc780200	-0.015137196
75	0xbc4f11af	-0.012638493
76	0xbf15fbdc	-0.5858743
77	0xbc237d77	-0.009978644
78	0x3d6a125c	0.057146415
79	0xbd6dd5da	-0.058065273
80	0xba6613ea	-0.0008776771
81	0xbcaf170b	-0.021373292
82	0xbd001676	-0.03127142
83	0x3d277964	0.04088725
84	0x3c898f71	0.016792031
85	0x3bec4e14	0.007211456
86	0xbd75d85e	-0.060020797
87	0xbb1e3c42	-0.0024144803
88	0xbe482d46	-0.1954852
89	0x3d82f88a	0.06395061
90	0xbe1876ef	-0.1488912
91	0x3bdf4369	0.006813456
92	0x3dab5713	0.083662175
93	0x3c5afc54	0.013365824
94	0xba71e04e	-0.00092268444
95	0xbc43c1c7	-0.011948056
96	0xbd2a7e8f	-0.041624602
97	0xbd7a7a31	-0.061151687
98	0x3a84a78b	0.0010120732
99	0x3c942d9f	0.01808816
100	0xbd22e86f	-0.039772447
101	0xbc19d4ac	-0.009389084
102	0x3cc33af4	0.023831822
103	0x3d617251	0.05504066
104	0x3c0105da	0.00787493
105	0xbd28b98e	-0.041192584
106	0x3dcb54ba	0.0992827
107	0x3ab289ae	0.0013621354
108	0x3dcfb8db	0.1014268
109	0x3a8a0a13	0.0010531567
110	0xbd3bd0e6	-0.045853518
111	0x3c23f2c5	0.010006611
112	0xbcf8c0e9	-0.030365424
113	0xbc1ca38d	-0.009560478
114	0xbc8cdc4b	-0.017194888
115	0xbd168256	-0.03674539
116	0xbedc26c4	-0.42998326
117	0x3d768222	0.060182698
118	0x3c32103b	0.010868127
119	0xbd9afa44	-0.07567266
120	0xbe7f66b2	-0.24941519
121	0x3be67f14	0.007034192
122	0x3dbb6c52	0.0915152
123	0xbdb20ed7	-0.08694237
124	0x3ba20b0c	0.0049451645
125	0x3ce59302	0.0280242
126	0xbf3babcd	-0.7330902
127	0xbbb0abb1	-0.005391561
128	0x3e200876	0.15628228
129	0x3d4b1a49	0.049585614
130	0xbe49aa86	-0.19693956
131	0x3bb6bd99	0.005576801
132	0x3d4bcdc9	0.0497568
133	0x3dd028f2	0.1016406
134	0xbbfa6e94	-0.0076425765
135	0xbccce796	-0.025012773
136	0xbe3cd955	-0.1844228
137	0xba967a5c	-0.0011480558
138	0xbc3ad0de	-0.011402337
139	0xbb0a58ed	-0.0021110133
140	0xbe3f51e4	-0.18683583
141	0x3a88a372	0.0010424687
142	0x3d4af2ac	0.049547836
143	0x3deaa739	0.114576764
144	0xbab73163	-0.001397651
145	0xbd82696c	-0.06367764
146	0x3daf5d6d	0.085627414
147	0x3d46e856	0.048561417
148	0xbdd90a05	-0.10597614
149	0xbb8a44d8	-0.0042196326
150	0x3d4d8a4f	0.05018073
151	0xbc3ff14c	-0.0117152445
152	0xbd099485	-0.033588905
153	0xbc92887c	-0.017887346
154	0x3c276533	0.010216999
155	0x3c5465a4	0.012963686
156	0xbe09b976	-0.13449654
157	0xbe2954dc	-0.16536278
158	0x3dd66a89	0.10469539
159	0xbcaf0058	-0.021362469
160	0x3b24ddf6	0.0025156713
161	0xbbf2077f	-0.0073861475
162	0x3a1a2c5d	0.00058812444
163	0x3aeed695	0.0018221909
164	0x3c04eb12	0.008112686
165	0x39e2e4a7	0.00043276438
166	0xbdbad6b7	-0.09122985
167	0x3f944cab	1.1585897
168	0x3f364689	0.7120138
169	0xba40ce8f	-0.00073549984
170	0x3a5de965	0.00084652595
171	0xbb78964b	-0.0037931378
172	0xba6eff94	-0.00091170636
173	0x3a8e0de2	0.0010837878
174	0x3b6c62c0	0.0036069602
175	0xbad65958	-0.0016353531
176	0x3e801174	0.25013316
177	0xbf39e2c3	-0.72611636
178	0xbeb22861	-0.34796432
179	0xbb211e5d	-0.0024584748
180	0x3c996a3e	0.018727418
181	0x3b012ba1	0.0019709843
182	0x3cb7be7c	0.022429697
183	0x3d70b2fb	0.05876444
184	0x3b98ce59	0.0046632704
185	0x3d0e314d	0.034714986
186	0x3f680a90	0.9064112
187	0xbc840d23	-0.016119545
188	0xbe33f7d5	-0.17575009
189	0x3cab7b64	0.02093286
190	0x3d784e47	0.060621526
191	0xbbecfcd2	-0.007232287
192	0xbc7aa692	-0.0152985025
193	0x3ca30bd4	0.019903101
194	0x3becf8a6	0.0072317896
195	0x3bcb2d10	0.00620044
196	0xbd031c14	-0.0320092
197	0xbd05111e	-0.032487027
198	0x3e61d3d6	0.22053465
199	0x3bd69476	0.0065484596
200	0xbce74c46	-0.028234612
201	0x3d68e9ff	0.05686378
202	0x3c6563a3	0.014000806
203	0x3d517228	0.05113426
204	0xbd46482b	-0.04840867
205	0xbce622e6	-0.028092813
206	0xbe80360d	-0.25041237
207	0x3d75d5d2	0.060018368
208	0x3d1a0cd5	0.037609894
209	0x3d5ded97	0.05418166
210	0x3a9d3b79	0.0011995874
211	0xbb4446a0	-0.0029949322
212	0x39b97250	0.0003537112
213	0x3ab2fa26	0.0013654872
214	0x3afc9d88	0.0019273022
215	0x39d01291	0.00039686685
216	0xbe020e1a	-0.12700692
217	0xbf5068fa	-0.8141018
218	0xbeb6b74c	-0.3568672
219	0x39f75829	0.00047177196
220	0x3cf35054	0.02970139
221	0xbc8206e7	-0.015872432
222	0x3c32682f	0.010889097
223	0x3d06912b	0.032853287
224	0x3be7e087	0.0070763263
225	0x3c1097b6	0.008825233
226	0x3ee1050e	0.4394917
227	0x3cb482c5	0.022035012
228	0xbe28824c	-0.16455954
229	0xbc31265c	-0.010812368
230	0x3d0a809e	0.033814065
231	0x3a62e45c	0.0008655244
232	0xbb9d2654	-0.004795829
233	0xbb3385bc	-0.0027392944
234	0x3b4f06e0	0.0031589791
235	0xbb14b17c	-0.0022688797
236	0xbd58eb99	-0.05295906
237	0xbc2aa181	-0.010414482
238	0xbc47a1c2	-0.012184562
239	0x3c9e6fe1	0.019340457
240	0x3d32dc6d	0.043667246
241	0x3c56c788	0.013109095
242	0x3d2cf4c6	0.04222562
243	0xbe0492c1	-0.12946607
244	0xbc877fa8	-0.016540363
245	0xbd99c846	-0.07508902
246	0x3f0d9bc8	0.5531583
247	0x3ced6777	0.02898
248	0xbd65e342	-0.056124933
249	0x3ca1bae2	0.019742433
250	0xbe5a0547	-0.21291076
251	0x3d0b83b6	0.034061156
252	0xbd64641b	-0.05575953
253	0xbe53da91	-0.20688845
254	0xbd1305e9	-0.03589431
255	0xbd592295	-0.053011496

R1.layers.0.bias f4 [40]
0	0x3f105eaf	0.56394476
1	0xbfe37e25	-1.7772871
2	0x4020e763	2.5141227
3	0xbeaa0b7c	-0.33211887
4	0x3f88f17e	1.0698698
5	0x3fe0ecd1	1.7572271
6	0xbf1e2dee	-0.61788833
7	0x40843cdb	4.1324286
8	0x401bf8ea	2.4370675
9	0xbd170ea8	-0.03687921
10	0x3fcc13a0	1.5943489
11	0x3da8d003	0.082428
12	0xbfa14eec	-1.260221
13	0x3fb9d000	1.4516602
14	0x3e8f34ce	0.27969974
15	0x3fa122a4	1.2588696
16	0xbeaa928a	-0.33314925
17	0xbea358bd	-0.3190364
18	0x4064ce4b	3.5750911
19	0xc05b247d	-3.424102
20	0x4008124d	2.126117
21	0xbe8ff258	-0.2811458
22	0x4034ed63	2.826989
23	0x401b1f5c	2.423789
24	0xbe328bea	-0.17436185
25	0xbf2c02d0	-0.6719179
26	0x3f1e8f62	0.61937535
27	0xbfbfcab2	-1.4983733
28	0xc05b4a34	-3.426404
29	0xbf8b564f	-1.0885714
30	0xbfdd9322	-1.7310526
31	0x3fc14d74	1.5101762
32	0xbf335606	-0.70053136
33	0xbf789883	-0.97107714
34	0x3ffd149b	1.9771913
35	0xc004092f	-2.0630605
36	0x401e4862	2.473168
37	0xc00ea910	-2.2290688
38	0x4029b21a	2.6514955
39	0x402e2d2f	2.7215078

R1.layers.2.weight f4 [40, 40]
0	0xbbc4d11f	-0.0060063745
1	0x3e1dc08d	0.15405484
2	0xbbb5a166	-0.005542922
3	0x3c5e8e9e	0.013583807
4	0x3dbb9b69	0.091605015
5	0xbee2748b	-0.4422954
6	0xbebfb5f4	-0.37443507
7	0xbea5b11f	-0.32361695
8	0xbe1117b0	-0.14169192
9	0x3d7800a9	0.060547505
10	0xbd76645b	-0.0601543
11	0xbd5e51ff	-0.054277416
12	0x3eb24ed5	0.3482577
13	0x3dcf37f9	0.10118098
14	0x3ef75e95	0.48314348
15	0xbc069dec	-0.008216362
16	0xbc8162d0	-0.015794188
17	0x3b9c2633	0.004765296
18	0xbd9da07a	-0.07696624
19	0x3d2a30e0	0.041550517
20	0x3d536ab6	0.05161544
21	0xbc3d6825	-0.0115604745
22	0xbf6f302e	-0.9343289
23	0xbbe5e148	-0.007015381
24	0xbc600d51	-0.01367505
25	0xbdac52f5	-0.0841426
26	0xbd3d9ce3	-0.046292197
27	0xbf0ac0d6	-0.54200494
28	0x3e17dc36	0.14830098
29	0xbe034821	-0.12820484
30	0xbe8c6043	-0.27417192
31	0xbdb8057c	-0.08985421
32	0xbd8c5eba	-0.06854005
33	0xbda97118	-0.08273524
34	0xbd0bd5eb	-0.034139555
35	0x3dc19c82	0.094536796
36	0xbe8dd1a3	-0.27699003
37	0xbe121284	-0.14264876
38	0x3c8d61dd	0.017258579
39	0x3d2b8f9c	0.041885003
40	0xbd4f9edc	-0.05068861
41	0xbd427399	-0.047473524
42	0xbd0fc887	-0.035103347
43	0xbc9a4cba	-0.018835414
44	0x37b79fa3	2.1889637e-05
45	0x3b82ecb5	0.003995503
46	0x3c093bc0	0.008376062
47	0x3da0f298	0.07858771
48	0x3d6a5579	0.05721042
49	0xbde491e6	-0.111606404
50	0x3dae622a	0.08514817
51	0xbef3c5a1	-0.47611716
52	0x3e5dd507	0.21663295
53	0xbd792c6a	-0.060833372
54	0x3c8be0e5	0.017075012
55	0x3c98f17a	0.018669832
56	0x3b0d0b51	0.0021521638
57	0x3bffcb0d	0.007806188
58	0x3dc5f665	0.09666137
59	0xbdbe7cb2	-0.093011275
60	0xbddf050b	-0.10889634
61	0xbb4c7753	-0.0031199052
62	0x3bebc40c	0.0071950015
63	0x3ca04cf7	0.01956795
64	0xbe21a4ec	-0.15785569
65	0x3ac4df39	0.0015020139
66	0x3bc943cf	0.0061421166
67	0xbd453081	-0.04814196
68	0xbd4742dd	-0.04864775
69	0xbca77a94	-0.020444192
70	0x3e051c6f	0.12999128
71	0xbd51ea00	-0.05124855
72	0x3caf6615	0.021410981
73	0x3d1f54f7	0.03889939
74	0x3bcb9d91	0.0062138517
75	0xbde6010e	-0.1123067
76	0xbdb1bc75	-0.086785235
77	0xbb8a1b1d	-0.004214658
78	0xbdff29be	-0.124591336
79	0x3e0e326d	0.13886423
80	0xbd07935e	-0.033099525
81	0xbd8812be	-0.066442
82	0x3d22146b	0.039570253
83	0xbe5a5125	-0.21320017
84	0xbdcd79b3	-0.10032978
85	0x3d3b0e43	0.045667898
86	0x3dbaa175	0.09112827
87	0x3de0e247	0.10980659
88	0xbbb9afdd	-0.0056667165
89	0xbe007f6e	-0.1254861
90	0x3d7d593b	0.061852675
91	0xbe8ecba8	-0.27889752
92	0x3d62d807	0.0553818
93	0xbf04fcd2	-0.51948273
94	0xbdba1bed	-0.09087358
95	0xbd0603f8	-0.03271863
96	0x3c068612	0.008210676
97	0x3ca0865f	0.019595323
98	0xbcb1a4fb	-0.021685114
99	0xbcadccee	-0.021215882
100	0xbcf85044	-0.030311711
101	0x3c5e0dff	0.013553142
102	0x3c875ee1	0.016524734
103	0x3c98f87b	0.018673172
104	0x3e49e164	0.19714886
105	0x3d61c1ad	0.055116344
106	0xbc8bd2aa	-0.017068226
107	0xbe7d4c24	-0.24736077
108	0xbdc348a4	-0.095353395
109	0x3d07ff04	0.033202186
110	0xbe6f93f1	-0.23396279
111	0xbdb14172	-0.08655061
112	0x3b8eb3dc	0.004354937
113	0x3ce20061	0.027588071
114	0x3d42e64f	0.04758292
115	0xbe788cc1	-0.24272443
116	0x3e0e12a3	0.13874297
117	0xbeb2647b	-0.34842286
118	0xbd00cbd5	-0.03144439
119	0xbd79cfb9	-0.060989115
120	0x3d7265bd	0.059179056
121	0x3d5654a6	0.05232682
122	0xbc77b3e5	-0.015118574
123	0x3ce0e68d	0.027453685
124	0x3e2834d8	0.16426408
125	0xbe18eded	-0.14934511
126	0xbe4a0048	-0.1972667
127	0x3bc2fbae	0.0059504127
128	0x3d41009a	0.047119714
129	0x3e19ff97	0.15038906
130	0xbd99a2bb	-0.075017415
131	0xbd05ac76	-0.032635175
132	0xbe24f79c	-0.1611008
133	0xc074c4b0	-3.8245049
134	0xbc14b69d	-0.0090767415
135	0x3daac998	0.08339232
136	0xbe2ff89a	-0.17184678
137	0xbd1a4518	-0.03766355
138	0xbd04a313	-0.032382082
139	0x3e09d8ae	0.13461563
140	0xbd379f6a	-0.044829763
141	0xbea4474a	-0.3208564
142	0xbc823a41	-0.015896918
143	0xbd04c3ce	-0.032413296
144	0xbebf0766	-0.37310332
145	0x3e681fa7	0.22668324
146	0xbcd62927	-0.02614267
147	0xbd6b0539	-0.057378028
148	0x3e089462	0.13337854
149	0xbc674d0b	-0.01411749
150	0x3c96fcd6	0.018431108
151	0xbd0b2b33	-0.033976745
152	0xbdb3623b	-0.0875897
153	0x3bec4f0b	0.007211571
154	0x3d8448ce	0.06459199
155	0x3d6840f6	0.056702577
156	0x3c409893	0.0117551265
157	0x3d172a03	0.0369053
158	0x3c2ac75e	0.010423509
159	0xbdbb38f8	-0.09141725
160	0xbe848cbd	-0.25888625
161	0xbd05b790	-0.032645762
162	0xbd93aa56	-0.072102234
163	0x3d74df88	0.05978349
164	0x3b9e4ae8	0.004830707
165	0x3dc099e1	0.0940435
166	0xbd0a99e1	-0.033838157
167	0xbb44bd91	-0.0030020217
168	0x3d49e676	0.04929205
169	0xbda1c973	-0.078997515
170	0x3d783e59	0.060606334
171	0xbb1ff0c4	-0.0024404982
172	0xbe67b73e	-0.22628495
173	0x3e407b08	0.18796933
174	0x3d124afe	0.03571605
175	0xbd8f2b20	-0.06990647
176	0xbc0cc072	-0.008590804
177	0x3c942b02	0.018086914
178	0x3c8ee026	0.017440867
179	0x3d0cb8e0	0.034355998
180	0x3c549066	0.01297388
181	0x3d4fd4e6	0.050740145
182	0xbcb1df19	-0.021712827
183	0xbca9390f	-0.02065709
184	0xbc42de06	-0.011893755
185	0xbfec318d	-1.8452622
186	0x3cabc77a	0.020969141
187	0xbda73c13	-0.08165755
188	0x3aee5992	0.0018184653
189	0xbd451a77	-0.048120942
190	0x3d1b4d42	0.037915476
191	0xbeab0d59	-0.3340862
192	0xbd44241f	-0.04788601
193	0x3daa353d	0.08310936
194	0xbecfd32d	-0.40590802
195	0x3d2f8378	0.042849988
196	0xbd5796c8	-0.05263403
197	0x3dab7388	0.08371645
198	0x3bd941ca	0.006630157
199	0xbe5210ed	-0.20514269
200	0xbccc483f	-0.024936793
201	0xbe0c245b	-0.13685744
202	0x3e36d97d	0.17856403
203	0xc057ce8b	-3.3719814
204	0xbdb581e4	-0.08862665
205	0xbf2b93c3	-0.6702234
206	0xbfab003b	-1.3359445
207	0x3e441c40	0.19151402
208	0x3e042445	0.1290446
209	0xbbd96178	-0.0066339336
210	0x3e0d26d2	0.1378434
211	0x3d42997e	0.047509663
212	0xbd23e06d	-0.04000895
213	0x3d52a4d3	0.05142672
214	0xbe2f358b	-0.17110269
215	0x3db52250	0.08844435
216	0xbf968f10	-1.1762409
217	0xbf401db8	-0.7504535
218	0x3e5ae7ca	0.21377483
219	0xbe9510a3	-0.29114255
220	0x3e1242f8	0.14283359
221	0xbfa0d195	-1.2563959
222	0x3e0cf268	0.13764346
223	0x3dd5fa7c	0.10448167
224	0x3dd7e53f	0.10541772
225	0xbd52f04c	-0.051498696
226	0xbe1997b5	-0.14999278
227	0xbd7383f4	-0.059452012
228	0xbea8ca39	-0.32966784
229	0xbd411b32	-0.047145076
230	0xbdf6342d	-0.120216705
231	0x3d35790d	0.044304896
232	0x3d12f33a	0.03587649
233	0xbd6747fe	-0.05646514
234	0x3e149e0e	0.14513418
235	0xbe215fc6	-0.15759191
236	0x3e117293	0.14203863
237	0xbe49d882	-0.19711497
238	0x3e5d3b50	0.21604657
239	0x3e88c00c	0.2670902
240	0xbdd9ca75	-0.10634319
241	0x3d573a8a	0.05254606
242	0x3c7ca67a	0.0154205505
243	0xbbf0ddcf	-0.0073506604
244	0x3d740821	0.059578065
245	0xbd1114bd	-0.03542017
246	0xbe4e5462	-0.20149377
247	0xbc180283	-0.009277943
248	0xbd04a5a9	-0.03238455
249	0x3d102416	0.035190664
250	0xbde419c1	-0.11137725
251	0x3cd5ab6d	0.026082719
252	0x3d408350	0.04700023
253	0x3c8688d7	0.016422672
254	0x3e0fab20	0.14030123
255	0x3c833530	0.016016573

R1.layers.2.bias f4 [40]
0	0xbf2f2d6b	-0.6842868
1	0x3d4d1c14	0.050075606
2	0x3c6ab3cc	0.0143250935
3	0xbef3768c	-0.47551382
4	0xbe8cc2b7	-0.27492306
5	0x3fa48859	1.285411
6	0xbe4a5013	-0.19757108
7	0x3e08155c	0.13289398
8	0x3ebe45d9	0.37162665
9	0x3ebadd98	0.36497188
10	0x3d6764d0	0.056492627
11	0x3ca854e1	0.020548286
12	0xbe90553f	-0.28190038
13	0x3e869c08	0.26290917
14	0xbef00b4a	-0.46883613
15	0x3c804e01	0.015662195
16	0x3ea195a0	0.31559467
17	0xbeb80470	-0.35940886
18	0x3ea07ba5	0.31344333
19	0xbe7f430a	-0.24927917
20	0x3e358f13	0.1773036
21	0x3f18b68e	0.59653556
22	0x3fd39414	1.6529565
23	0xbe193a29	-0.14963593
24	0xbed4079b	-0.41412053
25	0xbdc9b94f	-0.09849798
26	0x3fbed571	1.4908887
27	0xbe6d5e5c	-0.23180526
28	0x3e94b547	0.29044554
29	0x3e64f2f6	0.22358307
30	0x3f2e0feb	0.6799304
31	0xbe7dd3cf	-0.2478783
32	0xbde381e6	-0.111087605
33	0x3d984350	0.07434714
34	0xbccc432c	-0.024934374
35	0x3bda4287	0.0066607627
36	0xbe404027	-0.18774472
37	0x3efc4302	0.49269873
38	0x3e09e01f	0.13464402
39	0x3edd207c	0.43188846

R1.layers.4.weight f4 [4, 40]
0	0xbba1094c	-0.0049144384
1	0x3c8f8fb0	0.01752457
2	0x3cb1a7a1	0.021686377
3	0x3d4e1f5e	0.050322883
4	0x3c882a9b	0.016621878
5	0xbefcf51d	-0.49405757
6	0x3dd4f324	0.10397938
7	0x3c014166	0.007889127
8	0x3d41afd1	0.047286812
9	0x3b1214ea	0.0022290298
10	0x3d161f7e	0.036651127
11	0xbd1c942f	-0.038227256
12	0x3cadb107	0.021202577
13	0xbe3a8903	-0.18216328
14	0xbc4666f5	-0.012109508
15	0x3cd0be60	0.025481403
16	0x3d9c8948	0.07643372
17	0xbf183224	-0.5945151
18	0x3da0f692	0.078595296
19	0x3ca30d27	0.019903732
20	0xbbb1ad1a	-0.0054222466
21	0x3f4f27f2	0.80920327
22	0x3fd07109	1.6284496
23	0x3cc3bd60	0.023894012
24	0x3e30a5f6	0.17250809
25	0xbc74724f	-0.014919831
26	0x3eea6f1b	0.45787892
27	0x3cb5175d	0.022105867
28	0xbeca31a7	-0.39491007
29	0xbbb4fb89	-0.0055231494
30	0xbce2399b	-0.027615359
31	0x3c92a0a1	0.01789886
32	0xbd6fa573	-0.058507394
33	0x3a6cc90c	0.0009032644
34	0xbd46fe16	-0.04858216
35	0xbbd6e55f	-0.006558105
36	0xbb054764	-0.0020336742
37	0x3ccfb306	0.02535392
38	0x3a9436d9	0.001130785
39	0x3e4d199e	0.20029303
40	0xbd863fad	-0.06555114
41	0xbce81de3	-0.028334564
42	0xbc3c01a5	-0.011475001
43	0x3dd96d4d	0.106165506
44	0x3d0d3ca9	0.03448168
45	0x401cdc42	2.4509435
46	0x3d245652	0.040121384
47	0x3cda9453	0.026682055
48	0x3d2ff17d	0.04295491
49	0x3e20c64a	0.15700641
50	0x3d0ba04a	0.03408841
51	0xbcaebf42	-0.021331433
52	0xbc96b556	-0.018397015
53	0x3e314487	0.17311297
54	0xbc91cf2c	-0.017798983
55	0x3d17f6f8	0.037100762
56	0x3d01f3ae	0.03172653
57	0xbe012535	-0.1261185
58	0x3e22b8d1	0.15890814
59	0xbc85c032	-0.016326997
60	0x3cf84a44	0.03030885
61	0xbde60f87	-0.1123343
62	0x3e9bd2c7	0.30434248
63	0xbc18e4c4	-0.009331886
64	0xbdc7e6f4	-0.09760848
65	0xbc5dab91	-0.013529674
66	0x3f3d3335	0.7390626
67	0x3ca19476	0.019724112
68	0x3f8cc02e	1.0996149
69	0x3d851ea8	0.06499988
70	0x3b1251a0	0.0022326484
71	0xbc92fcc8	-0.017942801
72	0x3d865b5d	0.06560395
73	0x3c9ce8da	0.019154001
74	0xbd5949a7	-0.053048756
75	0x386d2630	5.6540768e-05
76	0x3c42b17a	0.011883134
77	0xbc7e2e4d	-0.015513969
78	0xbd48d7ea	-0.049034037
79	0xbde278fa	-0.11058231
80	0x3e80ec10	0.251801
81	0x3dc16836	0.09443705
82	0x3d8a2906	0.06746106
83	0x3da6cca0	0.08144498
84	0x3e83822a	0.25685245
85	0x3e056829	0.13028015
86	0x3d83aaa2	0.0642903
87	0xbcee33cb	-0.029077431
88	0xbe2cc93b	-0.16873638
89	0xbea286ff	-0.3174362
90	0xbe282ce9	-0.16423382
91	0x3e70296a	0.23453298
92	0x3d9a0273	0.075199984
93	0x3deca461	0.1155479
94	0x3c8cbdad	0.017180288
95	0x3b136cb8	0.0022495221
96	0xbc154f8d	-0.009113205
97	0xbe52de4b	-0.2059261
98	0x3d9edd23	0.07757022
99	0x3d912016	0.07086198
100	0xbdddf581	-0.10837842
101	0xbe4518f2	-0.19247797
102	0x3ea6034e	0.32424396
103	0x3d906196	0.07049863
104	0xbda2d34a	-0.079504564
105	0x3e3a0df1	0.1816938
106	0xbf0923e2	-0.5357038
107	0x3d648d54	0.055798844
108	0x3e4d854a	0.20070377
109	0xbe357da3	-0.17723708
110	0xbd96b4bd	-0.07358692
111	0x3d8be46f	0.068306796
112	0xbc64e60c	-0.013970863
113	0xba1b2f3b	-0.00059198186
114	0xbe2fb75c	-0.1715979
115	0x3ddeb2e9	0.10873968
116	0xbcc8b143	-0.024498587
117	0x3da744c4	0.08167413
118	0xbaabf9b9	-0.0013120688
119	0xbecb0ea3	-0.39659604
120	0xbdc2b468	-0.09507066
121	0xbdbe9a89	-0.09306819
122	0xbda4212f	-0.08014142
123	0xbebe22fa	-0.3713606
124	0xbc522454	-0.012826044
125	0x3d9ac9cc	0.07558021
126	0xbe8dafba	-0.2767313
127	0x3c620f77	0.013797632
128	0xbdd9a216	-0.106266186
129	0xbd1611fd	-0.03663825
130	0xbdc3bea7	-0.095578484
131	0x3e25b366	0.16181716
132	0xbdb27a2d	-0.087147094
133	0x3eeb07f5	0.45904508
134	0xbc66818d	-0.014068973
135	0xbc8aafc2	-0.016929511
136	0x3c3fcfd9	0.01170727
137	0x3cf7a41d	0.030229622
138	0x3ec19ed6	0.37816495
139	0xbda51441	-0.08060504
140	0x3d9435e9	0.07236845
141	0x3dde4492	0.108529225
142	0x3f7e9327	0.99443287
143	0xbdad2d75	-0.08455936
144	0x3c9d8dd3	0.019232666
145	0x3dde0d6c	0.10842404
146	0xbe80ae95	-0.25133196
147	0xbdc9eec1	-0.09859992
148	0xbe53866c	-0.20656747
149	0xbe478ac8	-0.19486535
150	0x3dd0e25f	0.10199427
151	0xbd9dd459	-0.07706518
152	0xbc83cb52	-0.016088162
153	0x3d8945d7	0.06702774
154	0xbe57abab	-0.2106158
155	0x3cbf214b	0.023331305
156	0x3ca06fc2	0.01958454
157	0xbdcade29	-0.09905655
158	0xbc7ecf6b	-0.015552382
159	0xbde5b3ae	-0.11215912

R1.layers.4.bias f4 [4]
0	0xbd10db17	-0.03536519
1	0xbb9127f2	-0.0044298107
2	0xbda84f7f	-0.08218288
3	0x3ddddf1e	0.10833572

O.layers.0.weight f4 [40, 7]
0	0x3dcbfc84	0.09960273
1	0x3c1241dc	0.008926835
2	0x3b9e9435	0.004839445
3	0x3dfb1bf2	0.122611895
4	0xbd946bd7	-0.07247131
5	0x3e3511a9	0.17682518
6	0x3e584fc3	0.21124177
7	0xbe92c248	-0.2866385
8	0x3c471df3	0.012153137
9	0xbdad924e	-0.08475171
10	0xbe748d60	-0.23882055
11	0xbdcfe451	-0.1015097
12	0xbc85bd9a	-0.01632576
13	0xbd7e54d5	-0.06209262
14	0x3d9e50bb	0.07730242
15	0xbc0a8480	-0.008454442
16	0xba0ef33a	-0.00054531137
17	0x3e48e1b4	0.19617349
18	0xbe03324e	-0.12812158
19	0xbe7e94ee	-0.248615
20	0xbde99d6b	-0.11406978
21	0xba8384d0	-0.0010034088
22	0x3abfc8bd	0.0014631968
23	0x39d8f129	0.0004137841
24	0x3e57aaeb	0.21061294
25	0x3e53b552	0.20674637
26	0x3e08c81a	0.13357583
27	0x3e0a1cdb	0.1348757
28	0x3dc40260	0.095707655
29	0xbbc5c471	-0.0060353805
30	0xbbac893b	-0.0052653826
31	0xbe4f2694	-0.2022956
32	0x3db204c1	0.08692313
33	0x3e1ddf81	0.15417291
34	0x3e0017b2	0.12509039
35	0x3d647cde	0.055783145
36	0x3b8a1969	0.004214455
37	0x39aca007	0.00032925626
38	0x3d0f2a32	0.03495235
39	0xbea03ab1	-0.31294778
40	0xbe84345b	-0.25821194
41	0xbe2a01be	-0.16602227
42	0x3d7a2dd1	0.06107885
43	0x3ae4ce24	0.0017456454
44	0xba395b94	-0.0007070836
45	0xbe03bb02	-0.12864307
46	0x3b9e3290	0.004827805
47	0x3e71ca70	0.2361238
48	0x3e14170c	0.14461917
49	0xbca660cc	-0.020309828
50	0xbb6530c8	-0.0034971703
51	0xb944776a	-0.00018736502
52	0x3be3dce7	0.006953824
53	0x3da5439c	0.08069536
54	0x3e86caa3	0.26326475
55	0x3d874617	0.066051655
56	0xbd726e33	-0.059187125
57	0x39497d5a	0.00019215551
58	0x398b901b	0.00026619513
59	0x3ec8a79d	0.3919038
60	0x3d7e075b	0.062018733
61	0xbdbdbb26	-0.09264211
62	0x3a157d46	0.0005702566
63	0x3d120766	0.035651587
64	0x3b32de3b	0.0027293104
65	0xb9e9f9c5	-0.00044627316
66	0xbe53c823	-0.20681815
67	0xbc3e7d46	-0.011626547
68	0xbd8d93ed	-0.0691298
69	0xbde90699	-0.113782115
70	0x3d11b45d	0.0355724
71	0xbba524f0	-0.0050398037
72	0x3a8cb4c2	0.0010735022
73	0x3ae9877e	0.0017816869
74	0x3dac82c4	0.08423379
75	0x3e128ef0	0.14312339
76	0xbdba9f98	-0.09112471
77	0x3c9c2cba	0.019064296
78	0xbcc89c01	-0.024488451
79	0x3bca7377	0.0061783153
80	0xbd9ba9a4	-0.07600716
81	0x3e4e2c6e	0.20134136
82	0x3db28aad	0.087178566
83	0x3ca7b5bf	0.020472405
84	0x3cf68214	0.030091323
85	0x3bc0f933	0.005889082
86	0x3a0f532c	0.00054674107
87	0x3e1b7f97	0.1518539
88	0x3d0ee0d9	0.0348824
89	0x3e89fea0	0.26952076
90	0x3e3a5fc9	0.18200602
91	0x3d85e556	0.06537883
92	0x3b9199b3	0.004443371
93	0xbb84fb2a	-0.0040582614
94	0xbddf09f4	-0.1089057
95	0x3e58907c	0.21148866
96	0x3e69f48b	0.22847192
97	0x3e13c44a	0.14430347
98	0x3d14db7c	0.03634213
99	0x3b8a225c	0.0042155217
100	0xbad975a3	-0.0016590845
101	0xbdc44b3e	-0.09584664
102	0x3d1aac05	0.037761707
103	0xbe82f11d	-0.2557458
104	0xbe5000f2	-0.2031286
105	0xbd99d4a3	-0.0751126
106	0x39d5116b	0.00040639503
107	0xb9bdc5d1	-0.00036196274
108	0x3deaefb9	0.11471505
109	0xbe0093f4	-0.1255644
110	0xbd5faede	-0.054610126
111	0x3b08d413	0.002087836
112	0x3d878ae4	0.06618288
113	0xbaa7fc9f	-0.0012816376
114	0x3a6eadca	0.0009104876
115	0x3e800ecf	0.25011298
116	0xbc4c7e03	-0.012481215
117	0x3e134d21	0.14384891
118	0x3e3aab69	0.1822945
119	0x3c9956e4	0.01871819
120	0xbacc9d30	-0.001561081
121	0xb8f24d30	-0.000115538365
122	0x3ea2ff2a	0.318353
123	0x3de59e32	0.11211814
124	0xbe58488e	-0.21121427
125	0xbde87d1d	-0.113519885
126	0x3db4cede	0.08828519
127	0xbb929f44	-0.0044745523
128	0xba2fb503	-0.0006702693
129	0xbe0614c5	-0.1309386
130	0x3d26754e	0.040639214
131	0x3ec08146	0.37598628
132	0x3ed9e6d7	0.4255893
133	0x3cdc11c0	0.026863933
134	0xbb6d3ceb	-0.003619964
135	0x3913348b	0.00014038586
136	0x3db931a1	0.09042669
137	0xbc9940de	-0.018707689
138	0xbd6b2211	-0.057405535
139	0x3c757740	0.014982045
140	0x3e0ad2b5	0.13556941
141	0x3bb05859	0.0053816256
142	0x3b20a881	0.0024514499
143	0xbe610d67	-0.21977769
144	0x3d7f6adb	0.062357765
145	0x3d53622d	0.0516073
146	0xbcb61d1a	-0.022230674
147	0x3b7beada	0.0038439543
148	0xba95c58b	-0.001142667
149	0x38dda69f	0.00010569137
150	0xbe59c386	-0.21265993
151	0x3e3b10a2	0.18268064
152	0xbdfa8cd0	-0.12233889
153	0xbe44f2c9	-0.1923324
154	0xbea13414	-0.31485045
155	0x39681d43	0.00022136145
156	0x3dbc7b1e	0.0920317
157	0x3c34609a	0.01100936
158	0xbd5fd86b	-0.05464975
159	0x3e68a150	0.22717786
160	0x3e465044	0.19366556
161	0x3d2f98fb	0.042870503
162	0xbbfb80df	-0.0076752747
163	0xbbfbfc00	-0.007689953
164	0x3e903854	0.28167975
165	0x3d552fef	0.052047666
166	0x3e04b958	0.12961328
167	0x3e465e89	0.19372
168	0xbcd29119	-0.025703954
169	0x3b88de0b	0.00417686
170	0xb97bf708	-0.00024029252
171	0x3e4711ad	0.19440337
172	0x3e4e193b	0.20126812
173	0x3d0e9824	0.03481306
174	0x3d5c5ad5	0.05379756
175	0x39ed2f61	0.00045239463
176	0xb927d115	-0.0001600425
177	0xb8b2bc72	-8.522802e-05
178	0xbef0a1d1	-0.46998456
179	0x3e06779d	0.13131566
180	0xbc48b5f5	-0.012250413
181	0xbe1c63f0	-0.15272498
182	0x3dd4f7c6	0.103988215
183	0x3bed63a6	0.007244545
184	0x3a29e716	0.0006481273
185	0xbccf00da	-0.02526896
186	0xbe00c6b2	-0.12575796
187	0xbd79fa73	-0.061029863
188	0xbd9372ea	-0.071996525
189	0xbe51ef77	-0.20501505
190	0x3c9267f0	0.017871827
191	0x3e017c6d	0.12645121
192	0xbd1434b1	-0.036183063
193	0x3cb59f5a	0.022170711
194	0x3e542c65	0.2072006
195	0x3e808e18	0.2510841
196	0x3ca8f0e2	0.020622674
197	0xbc7ddcbf	-0.0154945245
198	0x3a315865	0.0006765186
199	0xbd5b703f	-0.053573843
200	0x3ccc09a3	0.024906939
201	0xbc71a008	-0.014747627
202	0x3db25ed4	0.08709493
203	0x3b244bc6	0.0025069579
204	0x3b5861fe	0.0033017392
205	0xb6a46621	-4.8994702e-06
206	0xbe3cba08	-0.1843034
207	0x3eb40734	0.35161746
208	0x3dee0c4f	0.116234414
209	0xbcc2a71f	-0.02376133
210	0xbcfbd385	-0.030740509
211	0x3b0d84d6	0.002159407
212	0xba5d736d	-0.0008447681
213	0x3d313ca6	0.04327073
214	0x3e631c03	0.22178654
215	0xbcd5ec87	-0.026113762
216	0xbdee7ca2	-0.116448656
217	0x3cc8ef29	0.024528103
218	0x397cc863	0.00024107243
219	0xba1f5366	-0.0006077796
220	0x3e8b390f	0.2719197
221	0xbe524c4b	-0.20536916
222	0x3da97592	0.08274378
223	0x3e33d345	0.17561062
224	0xbeb20efb	-0.34777054
225	0x3c23f21d	0.010006455
226	0xbdbfb679	-0.09360976
227	0x3ca4d770	0.02012226
228	0xbce865a5	-0.02836878
229	0x3d69033c	0.05688785
230	0x3dd3cde1	0.10342003
231	0x3d98204c	0.07428035
232	0x3b14b6ee	0.0022692042
233	0xba4f3800	-0.0007904768
234	0x3d910e75	0.070828356
235	0xbe4dbec2	-0.200923
236	0x3e1419e3	0.14463
237	0x3e09448f	0.1340506
238	0x3b226308	0.0024778266
239	0x3a541448	0.00080901803
240	0xb6f4440e	-7.2796893e-06
241	0xbe86fbdf	-0.26364037
242	0x3e8cc7c0	0.27496147
243	0x3dbcd7db	0.09220859
244	0xbd165b1b	-0.03670798
245	0x3d77254c	0.060338303
246	0x3b514b1e	0.0031935642
247	0xbc1d4737	-0.0095994985
248	0xbdb7b61f	-0.08970284
249	0x3cf4821f	0.029847203
250	0x3e95b536	0.29239815
251	0x3e6ee6b1	0.2333019
252	0xbe2b4715	-0.16726334
253	0xbc304242	-0.010757985
254	0xbde3a3a4	-0.11115196
255	0xbca6b9e2	-0.020352308

O.layers.0.bias f4 [40]
0	0xbf2f0c3e	-0.68378055
1	0xbf2cd70a	-0.67515624
2	0x3dee3eb2	0.11633052
3	0x3ef7e431	0.48416284
4	0x3e23273a	0.15932932
5	0xbfe0aab4	-1.7552094
6	0xbebb41bb	-0.36573586
7	0xbfc30f0c	-1.5238967
8	0xbfae0e34	-1.3598084
9	0x3fdb0315	1.7110316
10	0xbfb4f086	-1.4135902
11	0x3e43c8bb	0.19119541
12	0x4019511f	2.3955762
13	0x3e8bd8c2	0.2731381
14	0x3e4935b5	0.19649394
15	0x4038d542	2.8880162
16	0x3f422bab	0.7584788
17	0xbefea1c7	-0.497328
18	0x3e9aac45	0.30209556
19	0xbfed3dd7	-1.8534497
20	0x3e72a782	0.23696712
21	0xbf9b8a1f	-1.2151526
22	0x3f5f62ba	0.8726002
23	0xbf2ad2a8	-0.66727686
24	0x3fd6d7fa	1.6784661
25	0x3eef2892	0.4671064
26	0x3ea27d5f	0.31736276
27	0x3ecfeb8c	0.40609396
28	0x403ab44e	2.917255
29	0x3fc26630	1.5187435
30	0xbf683a21	-0.907137
31	0x3ff20974	1.8909135
32	0x3f1dcb0f	0.6163797
33	0x3eb48855	0.35260263
34	0x3f380bf4	0.7189324
35	0x3fa78451	1.3087255
36	0x3ec06bf1	0.37582353
37	0xbed36817	-0.41290352
38	0x3f27709d	0.6540621
39	0x3e9098ff	0.28241727

O.layers.2.weight f4 [40, 40]
0	0x3d9c7494	0.07639423
1	0xbb031d01	-0.0020006301
2	0xbbe684dd	-0.0070348815
3	0xbcbff65a	-0.0234329
4	0x3d189a80	0.037256718
5	0xbe0351b3	-0.12824135
6	0x3d4ffaef	0.05077642
7	0x3da50b6d	0.0805882
8	0xbd1592d2	-0.036516972
9	0xbd9d8310	-0.07691014
10	0xbbe22817	-0.0069017517
11	0x3c5d99a6	0.013525402
12	0x3dc26984	0.09492782
13	0x3dd8d737	0.10587924
14	0xbd82fb56	-0.06395595
15	0xbec89cfa	-0.39182264
16	0x3d81b7e8	0.063339055
17	0xbe12881c	-0.14309734
18	0x3e94fff9	0.29101542
19	0xbc6748ea	-0.014116505
20	0x3d0f2410	0.0349465
21	0xbce32365	-0.027726838
22	0x3e795962	0.24350503
23	0xbd23b65f	-0.039968845
24	0x3cebca35	0.028782943
25	0xbdb386b8	-0.0876593
26	0x3d47541d	0.0486642
27	0x3e2d7009	0.1693727
28	0x3e0d2e50	0.13787198
29	0x3c7d609d	0.015464929
30	0xbda15077	-0.078766756
31	0xbd904a04	-0.07045367
32	0x3d59923c	0.053117976
33	0x3ba13ce1	0.0049205874
34	0x3be89ebf	0.007099002
35	0x3e413292	0.18866947
36	0x3e0b8e85	0.13628586
37	0xbe0008cb	-0.12503354
38	0x3e00de43	0.12584786
39	0x3d67be60	0.05657804
40	0x3d86a486	0.06574349
41	0xbd2083d2	-0.039188214
42	0x3dd6df8e	0.104918584
43	0xbd284b37	-0.041087355
44	0x3d0e8817	0.034797754
45	0x3d186564	0.03720607
46	0x3ddc5696	0.107587025
47	0xbcedf48f	-0.029047279
48	0xbd946021	-0.07244898
49	0xbd16b14a	-0.03679017
50	0x3d44d2ec	0.048052713
51	0x3d59ece4	0.053204432
52	0x3d3523ea	0.044223703
53	0xbc5521fc	-0.013008591
54	0xbe226547	-0.15858947
55	0xbf8e38af	-1.1111048
56	0x3db6606d	0.089051105
57	0xbb98792a	-0.0046531158
58	0x3e27e65d	0.1639647
59	0x3d76f405	0.06029131
60	0xbd0bda8f	-0.03414398
61	0xb99a90d2	-0.00029481068
62	0x3d27dd36	0.040982448
63	0x3d2536bc	0.040335402
64	0x3d665ff6	0.05624386
65	0xbee18c04	-0.44052136
66	0x3ce60d21	0.028082432
67	0x3de52a76	0.111897394
68	0x3e43f7ef	0.19137548
69	0xbd8892f2	-0.066686526
70	0x3b0957e4	0.0020956928
71	0xbd8aa80f	-0.06770336
72	0x3d9a1234	0.07523003
73	0x3c95826e	0.01825067
74	0xbe1afe3a	-0.15136042
75	0x3db3a857	0.08772343
76	0x3db888d6	0.090104744
77	0x3c909022	0.017646853
78	0x3dc35bc9	0.09538991
79	0x3dc6ffaf	0.097167365
80	0x3d66cd45	0.056348104
81	0x3c06d91f	0.008230477
82	0xbdd2a700	-0.10285759
83	0x3e53e82b	0.20694034
84	0xbcafa211	-0.021439584
85	0xbdde25c2	-0.108470455
86	0x3e17adcd	0.14812393
87	0xbe1ece80	-0.15508461
88	0xbf36cc38	-0.71405363
89	0x3b98be67	0.0046613696
90	0xbd5d44d1	-0.054020707
91	0x3d08873b	0.03333209
92	0x3e0a2087	0.1348897
93	0x3e4e0be5	0.20121725
94	0xbe7deac8	-0.24796593
95	0xbf150384	-0.5820849
96	0x3c7f2efe	0.015575169
97	0xbe5846e5	-0.21120794
98	0x3d4805b0	0.04883355
99	0xbe3816cb	-0.17977445
100	0xbd3b3360	-0.045703292
101	0xbeb55e93	-0.35423717
102	0x3d3b618e	0.045747332
103	0x3d6a16e9	0.057150755
104	0x3d09497e	0.033517353
105	0xbde57c8c	-0.11205396
106	0xbdf776eb	-0.12083229
107	0xbcf82efc	-0.030295841
108	0x3dcd2f19	0.10018749
109	0x3d967e07	0.073482566
110	0xbd641912	-0.05568797
111	0xbdc3b0ac	-0.09555182
112	0x3c8d0738	0.017215356
113	0x3db2a601	0.08723069
114	0x3daf5c58	0.08562535
115	0x3c96e844	0.0184213
116	0xbc8e23c9	-0.017351048
117	0x3c917d82	0.017760042
118	0x3d193947	0.03740814
119	0x3d9ae891	0.0756389
120	0x3c02a316	0.007973453
121	0xbd5812be	-0.05275225
122	0xbe02e7d3	-0.12783746
123	0x3a501120	0.0007937122
124	0x3e1c6880	0.15274239
125	0x3c14db7e	0.009085534
126	0x3e908f55	0.28234354
127	0xbd3503d4	-0.044193104
128	0x3cffe8ef	0.031239001
129	0x3c9a4a9f	0.01883441
130	0x3ca475fd	0.020075792
131	0x3e09bfd2	0.1345208
132	0x3d4f03e4	0.05054082
133	0x3e3e5902	0.18588641
134	0x3d8f9d5b	0.07012435
135	0xc0175d4b	-2.3650692
136	0xbdff8cf8	-0.124780595
137	0xbd1a99f5	-0.03774448
138	0xbd466d66	-0.048444174
139	0xbd7c7e6d	-0.061644007
140	0x3dd58ef3	0.10427656
141	0x3e338679	0.17531766
142	0x3d6d1110	0.0578776
143	0xbddb3923	-0.10704257
144	0xbdcae73e	-0.09907387
145	0x3ec22222	0.37916666
146	0x3cf6af01	0.030112745
147	0x3ce3c014	0.02780155
148	0x3c2a5abc	0.010397609
149	0x3e12911a	0.14313164
150	0x3cdc7b35	0.026914218
151	0xbed9d006	-0.42541522
152	0x3d954b22	0.07289721
153	0x3ccb85a4	0.024843998
154	0x3e90ec7c	0.28305423
155	0x3d50cc2a	0.050975956
156	0x3d3f7f24	0.04675211
157	0xbd8343bd	-0.064094044
158	0x3db26348	0.08710343
159	0xbd3fe52f	-0.046849426
160	0xbd836239	-0.06415219
161	0xbe756a64	-0.23966366
162	0xbdce2d04	-0.1006718
163	0x3d0eca12	0.034860678
164	0x3db72217	0.08942049
165	0xbe1f0fdf	-0.15533398
166	0x3b4619f0	0.0030227862
167	0xbd951384	-0.07279113
168	0x3deebf85	0.11657623
169	0x3d289993	0.041162085
170	0xbc1629d8	-0.00916525
171	0x3d6162d9	0.05502591
172	0x3c435586	0.011922246
173	0x3da36969	0.0797909
174	0x3c1425fe	0.009042261
175	0xbfad6d51	-1.3548986
176	0xbd2f6009	-0.042816196
177	0xbd03f4eb	-0.032215994
178	0x3e030f50	0.1279881
179	0xbdacbdc6	-0.08434634
180	0x3db57dad	0.088618614
181	0x3daa00e7	0.08300953
182	0x3dbee2bc	0.0932059
183	0xbe08753c	-0.13325971
184	0xbc6463d7	-0.013939819
185	0x3e31b17a	0.17352858
186	0xbbbf4c5f	-0.0058379616
187	0x3b0bd826	0.0021338551
188	0x3e450294	0.19239265
189	0x3e3ee684	0.18642622
190	0x3d332561	0.04373682
191	0xbecb0261	-0.39650252
192	0x3c312629	0.010812321
193	0x3c809290	0.015694886
194	0x3e593412	0.2121127
195	0x3d828601	0.063732155
196	0x3d28461b	0.041082483
197	0xbd7e6082	-0.062103756
198	0x3d91ace2	0.07113053
199	0x3af3bfaf	0.0018596555
200	0x3d6f0363	0.05835284
201	0x3dbd54b3	0.09244671
202	0xbcda9acb	-0.02668514
203	0x3ccd906e	0.025093284
204	0x3d7d1a94	0.061792925
205	0xbe05ba44	-0.13059336
206	0x3de674af	0.112527244
207	0xbd8230a7	-0.06356936
208	0xbe3812c9	-0.17975916
209	0xbde0b712	-0.10972418
210	0x3def81c6	0.11694674
211	0x3d101bf8	0.035182923
212	0x3cf77d03	0.030210977
213	0x3d22e261	0.039766673
214	0xbe825fec	-0.25463808
215	0xbf327ced	-0.6972187
216	0x3d274983	0.04084159
217	0xbe14ff14	-0.1455043
218	0x3e645659	0.22298564
219	0x3dac8b86	0.084250495
220	0x3d259464	0.04042472
221	0xbe006a28	-0.12540495
222	0x3e152c50	0.14567685
223	0x3d812646	0.06306128
224	0xbadecfc8	-0.001699918
225	0xbe0dbce8	-0.13841593
226	0xbbf38ff0	-0.00743293
227	0x3e4bf2a7	0.19916783
228	0xbe14520b	-0.14484422
229	0xbc3dec5f	-0.011592
230	0xbca40964	-0.020024009
231	0x3db792af	0.089635246
232	0x3e184134	0.14868623
233	0xbd1de18f	-0.038545188
234	0x3c2a86d5	0.010408123
235	0x3db71c84	0.08940986
236	0x3e082ccd	0.1329834
237	0xbd94fe50	-0.07275069
238	0x3db4e521	0.08832765
239	0x3ca16de8	0.019705728
240	0xbe9e7c46	-0.30954188
241	0x3d28c5d0	0.041204274
242	0xbe7115a2	-0.23543409
243	0x3d2ba8ce	0.04190903
244	0xba28948a	-0.00064308255
245	0xbe481156	-0.19537863
246	0xbe92a69d	-0.2864274
247	0xbd146e86	-0.036238216
248	0xbe2759de	-0.16342875
249	0x3e67bb82	0.22630122
250	0xbdca7a37	-0.09886592
251	0x3d98f621	0.0746882
252	0x3e4c3a83	0.19944195
253	0x3cf61155	0.030037561
254	0xbda311e8	-0.079624
255	0xbea6a1b8	-0.32545257

O.layers.2.bias f4 [40]
0	0x3e38642b	0.18006961
1	0x3e468bad	0.1938922
2	0x3cf984ca	0.030458827
3	0x3e3a0511	0.18165995
4	0x3e704665	0.23464353
5	0xbe8ee616	-0.27909917
6	0x3f0f8002	0.560547
7	0x3ebc2cb7	0.36752865
8	0xbed75d0a	-0.4206317
9	0x3e9669b4	0.2937752
10	0x3e9400f2	0.2890697
11	0x3facefe2	1.3510706
12	0x3f623ccf	0.88374037
13	0xbe0a2bb7	-0.13493238
14	0xbf90340f	-1.1265887
15	0x3de0e92e	0.109819755
16	0x3e2f1331	0.17097165
17	0x3e544a51	0.20731474
18	0xbf8e8f36	-1.1137455
19	0xbe545afb	-0.20737831
20	0x3ef1006b	0.4707063
21	0xbe985cbe	-0.29758257
22	0xbf4a7a30	-0.79092693
23	0x3e9b6cd2	0.3035646
24	0xbf0f7fb7	-0.5605425
25	0xbf246b50	-0.64226246
26	0x3e35dfcd	0.17761154
27	0x3ed525b6	0.41630334
28	0x3e0c25b3	0.13686256
29	0x3eb339ff	0.35005185
30	0xbe4838c1	-0.195529
31	0x3f4e50b2	0.8059188
32	0x3f4215de	0.75814617
33	0x3e89019f	0.2675905
34	0x3ee47317	0.44619057
35	0x3f1588fb	0.5841214
36	0xbe68cf88	-0.22735417
37	0x3e4f5e31	0.20250775
38	0x3e82bb6e	0.25533623
39	0xbe6bb3a2	-0.23017743

O.layers.4.weight f4 [3, 40]
0	0xbe733c05	-0.23753364
1	0xbe4e60cf	-0.20154117
2	0xbef9802e	-0.48730606
3	0x3e87fae1	0.26558593
4	0x3df22382	0.11823179
5	0xbe0ef8d9	-0.13962115
6	0x3e95d6b2	0.29265362
7	0xbef63401	-0.4808655
8	0xbf4878da	-0.78309405
9	0x3e17d3ae	0.14826843
10	0xbdc21fbf	-0.09478711
11	0x3f53cca8	0.82734156
12	0x3e28d3a8	0.1648699
13	0x3e5d632f	0.21619867
14	0x3ec1c8ed	0.37848607
15	0x3db8dcbe	0.09026478
16	0x3e4b44a3	0.19850402
17	0x3dbf7350	0.09348166
18	0xbe5c57c7	-0.2151786
19	0xbd619b13	-0.05507953
20	0x3dd5f0e2	0.104463354
21	0x3d5d6f3e	0.054061167
22	0xbe470ad1	-0.1943772
23	0x3e02cfa7	0.12774526
24	0x3d050b13	0.032481264
25	0xbdd2410f	-0.10266315
26	0x3e09a1d9	0.13440646
27	0x3e29f205	0.1659623
28	0x3e2084dc	0.15675682
29	0x3e10d92a	0.14145342
30	0x3dbf9404	0.093544036
31	0x3ddaf6e5	0.10691623
32	0xbf3c14bf	-0.73469156
33	0x3e3623d2	0.17787102
34	0xbe02250f	-0.12709449
35	0x3c701db8	0.014655523
36	0xbebcdc30	-0.3688674
37	0x3db30621	0.08741403
38	0x3ddaca4e	0.10683118
39	0xbeb17695	-0.34660783
40	0xbbae2b2b	-0.0053152046
41	0x3defe3c7	0.11713367
42	0xbf0c5022	-0.5480977
43	0xbea27243	-0.317278
44	0xbe0b14fd	-0.13582225
45	0xbe9c607e	-0.30542368
46	0xbdc8d7c6	-0.098067805
47	0x3d832d13	0.064050816
48	0x3f040e46	0.5158428
49	0xbc99422e	-0.018708315
50	0x3f13f087	0.5778889
51	0x3f24bb35	0.64348155
52	0x3e1dbdf1	0.15404488
53	0x3c889e25	0.016676972
54	0xbe978303	-0.29592142
55	0x3e777520	0.24165773
56	0x3d5cfb3b	0.05395053
57	0xbe876e6e	-0.2645144
58	0x3e0207e2	0.1269832
59	0xbd20eeab	-0.03929011
60	0xbdd641e7	-0.104617886
61	0x3e2118b6	0.15732083
62	0x3e549f02	0.20763782
63	0xbd012fcf	-0.031539734
64	0x3e1801eb	0.14844482
65	0xbe26a2c8	-0.16273034
66	0x3d4ea594	0.050450876
67	0xbde48f54	-0.1116015
68	0x3dd93d14	0.10607353
69	0x3daa5276	0.083165094
70	0xbc2915f7	-0.010320178
71	0x3e1561c6	0.14588079
72	0x3f83f0a2	1.030781
73	0x3d10f519	0.035389993
74	0x3ea57bad	0.3232092
75	0xbeee7d6a	-0.46580058
76	0xbee133ab	-0.43984732
77	0xbd8f77c2	-0.07005264
78	0x3dcd330d	0.10019503
79	0xbe3341a4	-0.17505509
80	0x3cfb9d90	0.03071478
81	0x3c9dc76c	0.01926013
82	0x3f9a98be	1.2077863
83	0x3d2d6792	0.0423351
84	0xbe1a6a19	-0.15079536
85	0xbd6f76ce	-0.05846291
86	0xbe30a8b7	-0.1725186
87	0x3efb912e	0.491342
88	0x3e889b70	0.2668109
89	0x3cc2eb8d	0.02379396
90	0x3e377b0a	0.1791803
91	0xbd4b79b0	-0.049676597
92	0x3e1e742e	0.15474007
93	0x3f8047cb	1.002191
94	0x3f11773b	0.56822556
95	0xbea12fb1	-0.31481698
96	0xbda62084	-0.081116706
97	0x3e9f8f03	0.31163797
98	0x3edbf83c	0.42962825
99	0xbe24a2fb	-0.16077797
100	0xbd0a6c59	-0.033794735
101	0xbdd32e92	-0.10311617
102	0xbd9aa365	-0.07550696
103	0x3caffa1f	0.021481572
104	0xbe13d2ab	-0.14435832
105	0x3eb4d76e	0.3532061
106	0xbc893158	-0.016747162
107	0xbdfce2b4	-0.12347928
108	0xbd802073	-0.06256189
109	0x3b65ed8d	0.0035084218
110	0xbdefad99	-0.11703033
111	0x3f180029	0.59375244
112	0xbeb3cfce	-0.3511948
113	0xbce1ffa8	-0.027587727
114	0xbc653378	-0.013989322
115	0xbdbb3997	-0.09141844
116	0xbede0e02	-0.43370062
117	0x3e2f09df	0.1709361
118	0x3c9cef35	0.019157032
119	0xbef59dc9	-0.47971943

O.layers.4.bias f4 [3]
0	0x3e969b34	0.29415286
1	0x3dca1b71	0.09868515
2	0x3bd7065c	0.0065620374

R2.layers.0.weight f4 [40, 10]
0	0xbbc17b52	-0.0059045935
1	0x3c41dd00	0.011832476
2	0x3d2208b0	0.039559066
3	0x3db5286a	0.08845599
4	0x3e90fdec	0.28318727
5	0xbc9e4da0	-0.019324124
6	0x3e30137d	0.17194934
7	0xbe03480b	-0.12820451
8	0x3e35a760	0.1773963
9	0xbecb77ce	-0.3973984
10	0x3cd12620	0.025530875
11	0xbc87c2a8	-0.016572312
12	0x3d7f769c	0.062368974
13	0x3d2f045b	0.042728763
14	0xbc148029	-0.009063759
15	0x3e1022b5	0.1407574
16	0x3e642047	0.22277938
17	0xbe302626	-0.17202052
18	0x3df90948	0.121599734
19	0xbed2b73b	-0.4115542
20	0xbeb97b8c	-0.3622707
21	0x3d999e3c	0.07500884
22	0x3e4b8989	0.19876684
23	0x3a79b974	0.0009526231
24	0xbb198399	-0.0023424386
25	0xbc34ee2a	-0.011043111
26	0x3dc7baa3	0.09752395
27	0x3e4a3e2f	0.19750284
28	0xbe940a4b	-0.28914103
29	0x3e4a8215	0.19776185
30	0x3d52fdc6	0.05151155
31	0xbdb09c28	-0.086235344
32	0xbe5e16e3	-0.21688418
33	0xbdef76b7	-0.11692565
34	0x3e2078f8	0.15671146
35	0x3e361d21	0.1778455
36	0x3ea0d25b	0.31410488
37	0xbd99ad5e	-0.0750377
38	0x3c95e5f4	0.018298127
39	0xbe705ad5	-0.2347215
40	0xbc20ad88	-0.009806998
41	0xb9c27e2c	-0.0003709657
42	0xbce9c9bb	-0.028538575
43	0xbbb69ba5	-0.0055727535
44	0x3b3dca3a	0.0028959648
45	0xbc5bc8cf	-0.013414576
46	0xbeab4ddb	-0.33457837
47	0xbf54e817	-0.8316664
48	0x3de5c123	0.112184785
49	0xbe951fac	-0.29125726
50	0x3c7da1ce	0.015480472
51	0x3d00ff23	0.031493317
52	0xbd9260b4	-0.07147351
53	0x3e4b1b8c	0.19834727
54	0xbd0d4a4b	-0.03449468
55	0xbe6abe13	-0.2292407
56	0xbdb0baf4	-0.086294085
57	0xbdc3e294	-0.09564701
58	0x3dc55676	0.09635632
59	0xbe144943	-0.14481072
60	0xbdf38c45	-0.11891989
61	0x3bc5b6ca	0.006033753
62	0x3e720727	0.23635541
63	0x3da5c369	0.08093912
64	0xba15cbf4	-0.00057142903
65	0x3e420b48	0.18949616
66	0x3dc8c048	0.098023
67	0x3d901ad2	0.070363656
68	0xbea3b4cb	-0.31973872
69	0xbe06a3e1	-0.13148452
70	0xbb46173a	-0.0030226246
71	0x3e8360c7	0.25659773
72	0xbe920546	-0.28519648
73	0x3c9f10dc	0.019417219
74	0xbc171722	-0.009221824
75	0x3da15f03	0.0787945
76	0xbe29a122	-0.16565374
77	0x3d8de2cb	0.06928023
78	0x3dff8c33	0.12477913
79	0xbca91fce	-0.020645048
80	0xbe5cd239	-0.21564569
81	0x3d7f464e	0.062322907
82	0x3e0d4e8f	0.13799499
83	0x3dafb621	0.0857966
84	0xbd1f49d6	-0.038888775
85	0xbe22c47b	-0.15895264
86	0x3deaa139	0.11456532
87	0x3e034a93	0.12821417
88	0x3de3a5ec	0.111156315
89	0x3de0b602	0.10972215
90	0x36e1c9df	6.7290234e-06
91	0xba9c7db6	-0.001193932
92	0xbc61bc00	-0.013777733
93	0xbe2de05e	-0.1698012
94	0x3ea5298e	0.32258266
95	0x3e56cb04	0.20975882
96	0x3e875b96	0.26437062
97	0xbc9ec1a4	-0.019379444
98	0xbe01c696	-0.12673411
99	0x3d9dcb13	0.07704749
100	0x3b22b8f4	0.002482948
101	0x3a207a4c	0.0006121739
102	0x3c9e2ff5	0.019309977
103	0xbe0d7a82	-0.13816264
104	0xbe2817fb	-0.16415398
105	0xbd634e54	-0.05549462
106	0x3e247cfd	0.16063304
107	0x3e6c3c39	0.23069848
108	0x3d13f9e6	0.036126994
109	0xbdbc2510	-0.091867566
110	0xbbff6979	-0.0077945557
111	0xbc0cea78	-0.008600824
112	0xbc3f510e	-0.01167704
113	0xbde4efde	-0.111785635
114	0x3de390ee	0.111116275
115	0xbef5c5cb	-0.48002467
116	0x3ca7518f	0.020424632
117	0xbd47dbcf	-0.04879361
118	0x3e89f36b	0.26943526
119	0x3e0135fd	0.12618251
120	0x3bd25b35	0.006419564
121	0x3ca9d66a	0.020732123
122	0xbd121bb8	-0.035670966
123	0xbc56b162	-0.013103815
124	0xbe8b4fc4	-0.27209294
125	0x3ed9c7ec	0.4253534
126	0xbda016ff	-0.07816886
127	0x3e7fc071	0.24975754
128	0xbe9e43cf	-0.3091111
129	0x3e6d7f54	0.23193103
130	0x3cc28470	0.023744792
131	0xbcad776b	-0.021175107
132	0x3dcc228e	0.09967528
133	0x3e4fd11b	0.20294611
134	0x3e802385	0.250271
135	0xbcf87e07	-0.030333532
136	0xbdc58496	-0.096444294
137	0xbd37b73c	-0.04485248
138	0x3dcafbb3	0.09911289
139	0xbe7f323a	-0.24921504
140	0xbe474c04	-0.19462591
141	0xbecc86fa	-0.3994673
142	0x3e6ab02e	0.2291877
143	0x3cf37402	0.029718403
144	0x3c8a558b	0.016886493
145	0x3d3da2a7	0.046297695
146	0x3ddeba7c	0.10875413
147	0x3e95d697	0.29265282
148	0xbe339582	-0.17537501
149	0xbd7e3b7d	-0.06206845
150	0xbb36f072	-0.0027914313
151	0x3b11d55a	0.0022252412
152	0x3c47d0ad	0.012195748
153	0x3e6540cf	0.22388004
154	0xbd656331	-0.0560028
155	0xbe12203d	-0.1427011
156	0xbdaa12db	-0.08304378
157	0xbdefacae	-0.11702858
158	0x3e157b6a	0.1459786
159	0xbddd1d7f	-0.107966416
160	0xbe304ea9	-0.17217506
161	0x3df0cdcf	0.11758005
162	0x3e9b0877	0.30279896
163	0xbbdd5b01	-0.0067552333
164	0xbb33c0c7	-0.0027428137
165	0xbcf234c3	-0.029566174
166	0xbdd5582f	-0.1041721
167	0x3e454aaf	0.19266771
168	0xbe310607	-0.17287455
169	0xbd9b9c06	-0.075981185
170	0x3e18acf2	0.14909723
171	0xbe237122	-0.15961125
172	0x3ed0359f	0.4066591
173	0x3d3d09bf	0.046151873
174	0xbc8459bd	-0.016156072
175	0x3d88d68f	0.06681549
176	0x3bd19ae2	0.0063966373
177	0xbdbaec20	-0.091270685
178	0xbf03796f	-0.5135717
179	0x3f066315	0.5249494
180	0x3c4d2f14	0.012523431
181	0x3c2cc824	0.010545764
182	0x3c1d374d	0.009595704
183	0x3d024a73	0.03180928
184	0xbe4c4c64	-0.19951016
185	0x3eb2aa56	0.3489558
186	0xbf2efe07	-0.68356365
187	0x3d610577	0.054936852
188	0xbeb63acc	-0.35591733
189	0xbe3e7181	-0.18597986
190	0x3ded9f54	0.11602655
191	0xbdd51952	-0.1040522
192	0x3ee992b5	0.4561974
193	0x3c9ba46d	0.018999303
194	0x3c9706f9	0.018435942
195	0x3c918741	0.01776469
196	0x3e5bbf7a	0.21459761
197	0xbd6828b5	-0.056679446
198	0xbe5ab512	-0.21358135
199	0x3ef11566	0.47086638
200	0x3bf6491a	0.0075160386
201	0xbba05a3e	-0.00489357
202	0x3d3ae732	0.04563064
203	0xbded1659	-0.11576528
204	0x3eb6709d	0.35632792
205	0x3ed4d07d	0.41565314
206	0x3e770525	0.24123056
207	0x3d0381bf	0.032106157
208	0xbea75854	-0.32684577
209	0x3d848422	0.06470515
210	0x3e3fd139	0.18732156
211	0xbe51eb70	-0.20499969
212	0xbe714c84	-0.23564345
213	0x3d054acc	0.032542035
214	0x3c0734a9	0.008252301
215	0x3d6ce8b8	0.057839125
216	0x3e1479f6	0.1449965
217	0xbe11d286	-0.14240465
218	0xbbe58913	-0.007004866
219	0xbc3bed1e	-0.011470107
220	0x3da2e548	0.07953888
221	0xbe8755d5	-0.26432672
222	0xbe6aa4d1	-0.22914435
223	0x3c70b841	0.014692367
224	0xba893a74	-0.0010469691
225	0x3cc210bc	0.02368962
226	0x3e1ef7f4	0.15524274
227	0xbe112cf6	-0.14177307
228	0xbd8d5e51	-0.06902755
229	0x3e5a0d4f	0.2129414
230	0x3d8d5787	0.0690146
231	0xbd76b155	-0.06022771
232	0x3ecc1f0d	0.3986744
233	0xbb8d1b69	-0.004306246
234	0x3b3f30ef	0.0029173454
235	0xbd015830	-0.031578243
236	0xbca6b62c	-0.020350538
237	0x3e80fbb2	0.25192028
238	0xbe206068	-0.15661776
239	0xbcded315	-0.027200261
240	0x3c09b4c4	0.008404914
241	0xbd970440	-0.073738575
242	0xbf01e23e	-0.50735843
243	0x3db6de71	0.08929146
244	0xbd7023be	-0.058627836
245	0x3ec4a4ad	0.38406888
246	0x3e9d83a5	0.307645
247	0xbae0d08e	-0.0017151998
248	0xbcff4ce4	-0.031164594
249	0xbaea4eef	-0.0017876307
250	0x3c836b28	0.016042307
251	0x3bad14f0	0.005282037
252	0x3d085250	0.033281624
253	0xbe1d9667	-0.15389405
254	0x3e93265e	0.2874021
255	0xbc2b42dc	-0.010452952

R2.layers.0.bias f4 [40]
0	0x3ef31618	0.47477794
1	0xbf3b6a25	-0.7320884
2	0xbe003579	-0.12520398
3	0x3b15cc1c	0.0022857254
4	0x3f26f5c6	0.6521877
5	0xbcd43295	-0.025903026
6	0x4000585c	2.005393
7	0x3faa67af	1.3312892
8	0x3eb6bee9	0.35692528
9	0xbdf29eff	-0.11846732
10	0x3e5c510e	0.21515295
11	0x3de94f28	0.11392051
12	0xbf16751f	-0.5877246
13	0x3eb697bb	0.35662636
14	0x3ecaea11	0.39631703
15	0x3e595af4	0.21226102
16	0xbd072926	-0.032998227
17	0x3f2a8209	0.6660467
18	0x3d94421e	0.07239173
19	0xbf062117	-0.5239424
20	0x3d395fd0	0.04525739
21	0x3f64e184	0.8940661
22	0xbf36218f	-0.71144956
23	0xbed29f1b	-0.41137013
24	0x3df48787	0.11939912
25	0x3e13108e	0.14361784
26	0x3e3987c6	0.181182
27	0x3dbd2532	0.0923561
28	0x3cd8c878	0.026462778
29	0x3ed51f09	0.4162524
30	0x3e783e79	0.24242581
31	0x3e16f4b1	0.1474178
32	0xbf6b8a0c	-0.9200752
33	0x3d84c9da	0.06483813
34	0x3fbd297a	1.4778283
35	0x3e95d58a	0.2926448
36	0xbe3c8c00	-0.18412781
37	0x3cf48cf0	0.02985236
38	0x3ea32226	0.3186199
39	0xbf222ba5	-0.63347846
